lab_04/models/fashion_mnist_model_epoch_19.pth (torch, 338327 bytes, 6 tensors)

linear1.weight f4 [100, 784]
0.02730495 0.02964314 -0.008366876 0.032807518 -0.007825051 0.007206603 -0.017389383 0.020976337
0.031499688 -0.026173877 0.031093435 0.0067248982 0.026139114 0.0046559004 0.01713388 -0.005179176
0.027494937 0.005480891 -0.016503919 0.009259413 -0.016331691 -0.0040773633 -0.014430688 0.023724942
-0.028182028 -0.016461806 -0.010084348 -0.021473942 0.003370826 -0.035274256 0.0322539 -0.030338252
0.027572379 0.005941912 -0.0115916785 0.022113048 0.005609449 0.0288846 0.0039363056 -0.011287278
0.009214848 -0.010098346 0.0147015825 0.031549685 0.020589156 -0.015340523 0.020955106 0.006753156
0.018498668 -0.021478418 -0.035159588 -0.013684448 -0.027354999 0.029318023 0.010293966 0.014797301
0.011295042 -0.00062128477 0.027950251 -0.025375543 0.0022476777 -0.02437188 0.011056479 -0.012265678
0.010850275 -0.0076048872 0.029410115 -0.021359319 -0.021466559 -0.021738231 0.031592064 0.011628539
0.034447007 -0.029375322 -0.035282336 -0.027723849 -0.023718374 0.014835293 0.013040017 0.029819807
-0.01838808 -0.024319107 0.018976385 -0.014428326 0.021675851 -0.008475023 0.020430211 -0.027749056
-0.018021991 0.0109071955 0.0075561516 -0.009284928 0.021024419 0.024061987 -0.026078586 -0.019204022
0.032487705 -0.012259079 -0.012758938 -0.034570694 -0.020405225 0.009123919 -0.004488549 -0.025762524
0.0009873039 -0.024124209 -0.030007185 -0.01947378 -0.03117936 -0.022706386 0.03573153 0.0067522484
0.011005704 -0.033310156 -0.023456555 -0.011888123 0.0055853175 -0.03141061 -0.0155108785 -0.021568201
-7.1328875e-05 -0.013443699 -0.0026169363 -0.024329742 -0.024651378 -0.020894727 -0.012143684 -0.028052615
0.03014179 -0.0067421296 0.031135656 0.011507029 -0.029905682 0.024995238 -0.009551229 -0.013446675
-0.029495332 -0.035444792 0.010258305 -0.0077928505 0.013904366 -0.029308472 0.02651577 -0.026216755
-0.0061676065 0.007426761 0.018301886 0.028691392 0.032363523 -0.028497396 0.008833203 -0.015471253
-0.0039706393 -0.026690157 0.032682553 -0.025939105 0.01945657 0.012990449 0.012032 -0.018879607
0.03290198 0.008246225 0.004905811 -0.031166658 0.015272469 -0.005212901 -0.016311083 0.030686187
0.007962402 -0.01975967 -0.018076515 -0.0017083924 0.019942092 -0.009178037 -0.020507952 -0.012378466
-0.026833652 0.012545121 0.027462905 -0.033756293 0.008235151 0.018477235 0.0066473377 -0.012452751
0.0189585 0.019126771 0.013686506 -0.005947556 -0.009071533 0.0042006243 -0.006001656 -0.010326876
0.023149038 0.030908663 -0.0034623477 -0.007987075 0.0005210948 -0.0021326633 0.008584675 0.010003898
-0.032438572 -0.01324756 0.02993723 0.0137213515 -0.0019513268 -0.02172545 -0.022020314 -0.032122243
-0.011704815 0.01207237 0.02287694 0.01670681 -0.031318728 -0.021206396 -0.0053827385 0.034810107
0.0054909103 -0.0089203445 0.015056962 -0.013306317 -0.022795048 0.026348453 -0.016140288 -0.007149431
-0.03552872 0.023902243 0.027054757 0.013008161 -0.024903895 -0.035325788 -0.029131634 0.026388122
0.016916893 0.029867804 0.018559774 0.008912649 -0.00043442915 -0.027125651 -0.030471804 -0.033172462
0.0148664685 -0.017269313 -0.0069107036 -0.020323472 -0.006263977 -0.024822451 -0.023028381 0.012185895
-0.01026212 0.02237391 -0.011307643 -0.026187332 -0.0063017365 -0.017314803 -0.010933171 -0.034010865
00000000: a1ae df3c 2cd6 f23c 3915 09bc 2d61 063d
00000010: a534 00bc 5e25 ec3b 2e74 8ebc 91d6 ab3c
00000020: d105 013d 996a d6bc a9b7 fe3c 895c dc3b
00000030: b221 d63c 8690 983b 5a5c 8c3c 14b6 a9bb
00000040: 103d e13c 0c99 b33b 3a33 87bc cbb4 173c
00000050: 0aca 85bc 679b 85bb b16e 6cbc cf5a c23c
00000060: ffdd e6bc e9da 86bc d238 25bc 1fea afbc
00000070: 13e9 5c3b bd7b 10bd aa1c 043d ed87 f8bc
00000080: 78df e13c 5fb4 c23b 06eb 3dbc 6c26 b53c
00000090: 78cf b73b 669f ec3c 20fc 803b 46ee 38bc
000000a0: e0f9 163c 8873 25bc e8de 703c 3e3a 013d
000000b0: 97aa a83c d156 7bbc 0baa ab3c 9449 dd3b
000000c0: 858a 973c 82f3 afbc 8003 10bd bc34 60bc
000000d0: 9717 e0bc 5a2c f03c 06a8 283c 6170 723c
000000e0: d70e 393c b7dd 22ba edf7 e43c 5fe0 cfbc
000000f0: c64d 133b 89a7 c7bc 3c26 353c fbf5 48bc
00000100: 5ac5 313c 6b32 f9bb 7bed f03c bdf9 aebc
00000110: a3da afbc 6014 b2bc ae66 013d a185 3e3c
00000120: 4e18 0d3d 84a4 f0bc 3684 10bd 201d e3bc
00000130: 094d c2bc bb0f 733c cca5 553c ab48 f43c
00000140: 99a2 96bc dd38 c7bc 5d74 9b3c c964 6cbc
00000150: 8e91 b13c d3da 0abc 425d a73c fd51 e3bc
00000160: dba2 93bc 18b4 323c 9899 f73b d01f 18bc
00000170: 673b ac3c a51d c53c c2a2 d5bc c151 9dbc
00000180: d411 053d 4eda 48bc dd0a 51bc 009a 0dbd
00000190: dc28 a7bc 7d7c 153c ae14 93bb ee0b d3bc
000001a0: 6c68 813a 22a0 c5bc a1d1 f5bc 7a87 9fbc
000001b0: db6b ffbc be02 babc 3a5b 123d f741 dd3b
000001c0: 4551 343c 3b70 08bd f627 c0bc 67c6 42bc
000001d0: 0a05 b73b 69a8 00bd 5721 7ebc ccaf b0bc
000001e0: 6696 95b8 f642 5cbc e880 2bbb 2b4f c7bc
000001f0: b0f1 c9bc 6b2b abbc 4df6 46bc 99ce e5bc
00000200: eaeb f63c 15ed dcbb 3410 ff3c fa87 3c3c
00000210: c3fc f4bc d0c2 cc3c c27c 1cbc 714f 5cbc
00000220: 32a0 f1bc 8f2e 11bd 7312 283c 2b5b ffbb
00000230: 23cf 633c 5218 f0bc 9a37 d93c 85c4 d6bc
00000240: a219 cabb 305c f33b d6ed 953c 360a eb3c
00000250: 9d8f 043d 5f73 e9bc 24b9 103c 237b 7dbc
00000260: 231c 82bb 51a5 dabc 24de 053d 3f7e d4bc
00000270: 6263 9f3c e4d5 543c de21 453c 68a9 9abc
00000280: 3ac4 063d 2d1b 073c edc0 a03b 3851 ffbc
00000290: 6139 7a3c fcd0 aabb d29e 85bc 9961 fb3c
000002a0: bc74 023c 08df a1bc 3315 94bc 23ec dfba
000002b0: 995d a33c 7a5f 16bc 4b00 a8bc 0dcf 4abc
000002c0: 3fd2 dbbc 0d8a 4d3c e3f9 e03c 0a44 0abd
000002d0: baec 063c 925d 973c e9d1 d93b a006 4cbc
000002e0: db4e 9b3c bfaf 9c3c 5e3d 603c b7e3 c2bb
000002f0: c4a0 14bc 64a5 893b 8aa9 c4bb 0f32 29bc
00000300: 0da3 bd3c 2a34 fd3c 8ee8 62bb 38dc 02bc
00000310: 149a 083a 27c4 0bbb bda6 0c3c 64e7 233c
00000320: 4fde 04bd 4b0c 59bc ec3e f53c 85cf 603c
00000330: aac3 ffba 92f9 b1bc f263 b4bc 9d92 03bd
00000340: 8dc5 3fbc 31cb 453c 6c68 bb3c b8dc 883c
00000350: 1148 00bd 09b9 adbc af61 b0bb 0b95 0e3d
00000360: 18ed b33b a326 12bc 7ab1 763c bd02 5abc
00000370: aebc babc b6d8 d73c a338 84bc c645 eabb
00000380: 9086 11bd a3ce c33c f0a1 dd3c 2f20 553c
00000390: 4103 ccbc c6b1 10bd 77a5 eebc e72b d83c
000003a0: 4c95 8a3c 53ad f43c ab0a 983c 5c06 123c
000003b0: 18c4 e3b9 9d36 debc 01a0 f9bc d9df 07bd
000003c0: 7d92 733c 6078 8dbc 2f73 e2bb 697d a6bc
000003d0: 0c42 cdbb 7458 cbbc 04a6 bcbc 59a7 473c
000003e0: 7322 28bc 7d49 b73c b143 39bc d186 d6bc
000003f0: cc7e cebb c6d7 8dbc 0b21 33bc fa4e 0bbd

linear1.bias f4 [100]
-0.017677607 0.026374798 0.042997066 0.017001335 0.002662137 0.014329502 -0.025871828 0.031804692
0.017585091 -0.0031338155 -0.03710778 -0.010812078 0.010326442 0.061655708 0.019620452 0.022795731
0.016897917 0.00046017533 -0.01513092 0.03521882 0.026191482 -0.025764223 0.0030729615 0.046939686
0.016540252 -0.021393461 0.025938258 0.0021707688 0.06252629 -0.026189284 -0.01550385 0.0045094574
0.01111715 -0.025454884 0.034751702 0.0024483514 -0.029191691 0.033817094 0.023338862 0.05115868
0.038747292 -0.020403035 -0.013565032 0.006322173 -0.012520056 -0.025435088 0.061239067 0.005983352
0.029875826 0.009337308 -0.011982459 0.012408292 0.0016989885 0.0446515 -0.014724317 0.002309316
0.014475458 0.00867294 -0.031892087 0.03037456 -0.018545004 -0.018528678 -0.0029813454 0.00039257613
0.016536824 0.051525638 -0.02992108 -0.0070413304 -0.045538183 0.0015563848 -0.00894499 0.021022081
0.012070336 0.038294975 0.030017251 0.037168287 0.019353842 0.009999374 -0.012866975 -0.0041276813
0.045479927 0.06119307 0.032172564 0.0064259255 -0.008346464 -0.014965743 0.031874254 -0.023502257
0.07460839 -0.022837806 -0.00260086 -0.0025375157 -0.030136669 -0.0052958922 0.0018097151 -0.012696497
0.029548908 0.04239428 0.058811985 -1.9075474e-05
00000000: a1d0 90bc f60f d83c b11d 303d 6246 8b3c
00000010: 3f77 2e3b 4ac6 6a3c 28f1 d3bc a345 023d
00000020: 9c0e 903c b360 4dbb 54fe 17bd 2425 31bc
00000030: 3d30 293c b28a 7c3d 12bb a03c 1dbe ba3c
00000040: 806d 8a3c b043 f139 aee7 77bc 9c41 103d
00000050: 858f d63c 7e0f d3bc bd63 493b d443 403d
00000060: 6c7f 873c 5741 afbc 787c d43c 7543 0e3b
00000070: c90d 803d e98a d6bc dc03 7ebc 12c4 933b
00000080: b524 363c c386 d0bc cd57 0e3d 8574 203b
00000090: 6a23 efbc cb83 0a3d 2431 bf3c c48b 513d
000000a0: 7bb5 1e3d 4424 a7bc de3f 5ebc 3b2a cf3b
000000b0: ec20 4dbc 3f5d d0bc d1d5 7a3d ff0f c43b
000000c0: 26be f43c 82fb 183c 1352 44bc 264c 4b3c
000000d0: 98b0 de3a 7ee4 363d 433e 71bc e557 173b
000000e0: 792a 6d3c f218 0e3c 47a1 02bd 12d4 f83c
000000f0: b1eb 97bc 74c9 97bc ad62 43bb add2 cd39
00000100: 3c78 873c 8c0c 533d 0e1d f5bc f6ba e6bb
00000110: 3f86 3abd 9cff cb3a 028e 12bc 8036 ac3c
00000120: a9c2 453c 31db 1c3d bde6 f53c c63d 183d
00000130: f38b 9e3c 6ad4 233c 01d0 52bc 8041 87bb
00000140: 2949 3a3d 96a5 7a3d 61c7 033d 9290 d23b
00000150: 9bbf 08bc e032 75bc 948e 023d ce87 c0bc
00000160: 49cc 983d 5a16 bbbc 3173 2abb 734c 26bb
00000170: 2de1 f6bc 2a89 adbb f633 ed3a f804 50bc
00000180: 8d10 f23c a0a5 2d3d d6e4 703d 4504 a0b7

linear2.weight f4 [50, 100]
0.015694547 -0.061072458 0.068575926 0.09058866 -0.053160533 0.076451205 0.029788006 0.010082847
-0.07417035 0.062006734 0.029589234 -0.04026429 -0.0937757 0.08320069 0.019049335 0.0027573402
0.095700674 0.025923658 -0.014926736 -0.07725895 0.06316768 -0.05461694 -0.030180698 -0.066770405
-0.022479804 -0.0048423233 -0.029801542 0.01786011 0.03835103 0.055312946 -0.036650356 -0.04717714
0.025468828 -0.025678974 0.017400624 0.10841486 0.072712585 -0.020540707 0.033154298 0.07686255
0.076381646 -0.07726673 0.10120097 0.09339658 0.06504952 0.009538029 0.09549299 -0.02343565
0.01165671 0.009887377 0.009994389 -0.10269015 -0.064956345 -0.0044954964 -0.012040358 0.032219034
0.03713301 -0.07767775 -0.010367322 0.04734281 0.012384912 -0.023252936 -0.096018344 -0.064582564
0.1112542 -0.0064662322 0.072259754 0.036666967 -0.07781394 -0.0915769 0.08592733 -0.039646238
-0.010883339 0.048598994 -0.07949126 -0.008305629 0.06063347 -0.059735678 -0.01299211 0.08029932
-0.030513737 -0.0203234 0.0728953 -0.04895957 0.0120207975 -0.03714877 -0.08659441 -0.060941514
0.04503893 0.09784522 -0.05305493 0.07547509 -0.07745124 -0.013038369 -0.030420363 -0.013200781
0.02292541 0.049793757 0.056408703 -0.054611873 -0.08742272 -0.08725637 -0.01298413 -0.06404649
-0.09117033 0.025388848 -0.026421431 0.091233596 0.028547829 -0.032501195 0.093486056 0.095456764
-0.006441115 -0.03634869 -0.050370432 0.03380161 -0.060814828 0.057450976 -0.034048628 -0.07515368
0.086946756 -0.07451054 -0.05388977 -0.005356917 0.107210025 -0.028254464 0.006620646 0.03967124
-0.03475682 -0.022697013 -0.08217083 0.025627136 -0.012945751 0.0039197695 -0.046147276 0.025814084
-0.06997418 0.039221693 0.06597663 0.08937903 -0.0018109374 -0.013857487 0.04691518 -0.09170108
-0.027370548 0.07720355 0.01986189 -0.009013656 -0.046721816 0.05946323 0.0933429 -0.035015494
0.07411016 0.10415423 -0.06748862 -0.08704364 -0.07774334 -0.013907965 0.0064534764 -0.05867058
-0.06106673 -0.087764226 -0.030716533 0.046579458 -0.05212675 0.038053516 0.024498647 0.0121330265
0.06867584 -0.014406778 -0.03649478 -0.057463784 -0.090970516 0.03327118 -0.01861688 0.07037428
0.018353604 0.03027325 -0.07592662 -0.011860815 -0.04783493 0.04841923 -0.051730204 0.10037069
-0.018223137 -0.06625215 0.05107884 0.096938826 0.0063977237 0.06250661 0.06759373 0.016829127
-0.038129695 -0.090904646 0.08186079 0.053083315 -0.09573734 0.08135504 -0.06617762 -0.11149522
0.05454664 0.010961746 0.07444545 0.007924674 0.059635013 0.08858409 -0.03232021 -0.000617529
-0.12761371 0.087634854 -0.0710588 -0.018904673 -0.10712126 0.19537264 -0.012799073 -0.07022717
-0.080389455 0.03957864 -0.01994634 0.036597297 0.13049869 -0.056762774 0.0065977797 -0.118951894
-0.082620114 -0.078369506 0.085506044 -0.10133141 0.09969704 -0.08380048 -0.047900856 0.18244642
0.04724199 -0.073229164 0.03941329 0.016359307 0.022464473 -0.027101826 0.15343904 0.15774447
-0.02507484 -0.05391358 -0.08219362 0.0030125119 -0.0109535 -0.053479444 0.10722376 -0.023883283
0.13553928 0.038285743 0.06317757 -0.11662077 0.15039067 0.11056616 0.039649907 0.017060326
00000000: da91 803c 1d27 7abd 8971 8c3d 8c86 b93d
00000010: dcbe 59bd 7392 9c3d fa05 f43c 8732 253c
00000020: a0e6 97bd c6fa 7d3d 1f65 f23c 2bec 24bd
00000030: 790d c0bd 2065 aa3d 5a0d 9c3c 7eb4 343b
00000040: b7fe c33d da5d d43c 458f 74bc f139 9ebd
00000050: 0e5e 813d 03b6 5fbd 833d f7bc ecbe 88bd
00000060: 9127 b8bc 5aac 9ebb 5d22 f4bc 5e4f 923c
00000070: f815 1d3d d48f 623d af1e 16bd d13c 41bd
00000080: 01a4 d03c b65c d2bc c18b 8e3c 9c08 de3d
00000090: 56ea 943d fc44 a8bc cdcc 073d 1d6a 9d3d
000000a0: fb6d 9c3d 053e 9ebd 7442 cf3d b546 bf3d
000000b0: af38 853d 6545 1c3c d491 c33d 1ffc bfbc
000000c0: c9fb 3e3c aafe 213c 81bf 233c 374f d2bd
000000d0: d507 85bd f54e 93bb ec44 45bc 1bf8 033d
000000e0: c818 183d 8315 9fbd b3db 29bc 89ea 413d
000000f0: 16ea 4a3c f17c bebc 44a5 c4bd dd43 84bd
00000100: 3ed9 e33d b0e2 d3bb ecfc 933d 1a30 163d
00000110: ea5c 9fbd ab8c bbbd abfa af3d 1864 22bd
00000120: 0850 32bc bd0f 473d 50cc a2bd 5514 08bc
00000130: cd5a 783d 66ad 74bd dcdc 54bc f873 a43d
00000140: f2f7 f9bc 427d a6bc 224a 953d d489 48bd
00000150: e1f2 443c 4f29 18bd 6958 b1bd cf9d 79bd
00000160: be7a 383d 1363 c83d 2050 59bd af92 9a3d
00000170: c19e 9ebd e29e 55bc 2034 f9bc 1748 58bc
00000180: 12ce bb3c 8af4 4b3d d00c 673d b3b0 5fbd
00000190: af0a b3bd 78b3 b2bd 63bb 54bc ce2a 83bd
000001a0: 83b7 babd 46fc cf3c c271 d8bc aed8 ba3d
000001b0: 23dd e93c f91f 05bd 9e75 bf3d d67e c33d
000001c0: fd0f d3bb 5de2 14bd 3a51 4ebd 8f73 0a3d
000001d0: f818 79bd b751 6b3d 9376 0bbd 2cea 99bd
000001e0: 2411 b23d fb98 98bd 85bb 5cbd 1489 afbb
000001f0: ee90 db3d e875 e7bc 01f2 d83b 4f7e 223d
00000200: 2b5d 0ebd 16ef b9bc 2e49 a8bd 00f0 d13c
00000210: 6a1a 54bc 6971 803b ed04 3dbd 0f78 d33c
00000220: 9f4e 8fbd eda6 203d c11e 873d 5a0c b73d
00000230: fa5c edba 830a 63bc 222a 403d c7cd bbbd
00000240: 3338 e0bc e51c 9e3d 67b5 a23c 03ae 13bc
00000250: 605f 3fbd b78f 733d 902a bf3d 686c 0fbd
00000260: 11c7 973d d04e d53d 7937 8abd f043 b2bd
00000270: e637 9fbd 3cde 63bc af77 d33b 9050 70bd
00000280: 1c21 7abd bbbd b3bd 3da1 fbbc 1aca 3e3d
00000290: dc82 55bd 01de 1b3d 63b1 c83c 9ac9 463c
000002a0: eba5 8c3d 680a 6cbc 8d7b 15bd 255f 6bbd
000002b0: c04e babd 5c47 083d 6d82 98bc 6420 903d
000002c0: 4c5a 963c 9bff f73c 6a7f 9bbd dd53 42bc
000002d0: 8fee 43bd 3e53 463d 0de3 53bd 268f cd3d
000002e0: b048 95bc 35af 87bd 0c38 513d dd87 c63d
000002f0: ffa3 d13b 7703 803d 956e 8a3d 3ddd 893c
00000300: e22d 1cbd 372c babd a1a6 a73d e46d 593d
00000310: f011 c4bd 799d a63d 2288 87bd 9b57 e4bd
00000320: 4c6c 5f3d e598 333c db76 983d 7ed6 013c
00000330: d843 743d 936b b53d 3262 04bd abe1 21ba
00000340: 2bad 02be e779 b33d 4787 91bd f9dd 9abc
00000350: 6462 dbbd c40f 483e 34b3 51bc 43d3 8fbd
00000360: 3aa3 a4bd 361d 223d 8266 a3bc 0ce7 153d
00000370: 73a1 053e 1580 68bd 3032 d83b 0d9d f3bd
00000380: bc34 a9bd 3180 a0bd cb1d af3d d886 cfbd
00000390: f62d cc3d 969f abbd b033 44bd 3cd3 3a3e
000003a0: d180 413d 2cf9 95bd d46f 213d f403 863c
000003b0: 6a07 b83c a604 debc 201f 1d3e c487 213e
000003c0: c069 cdbc 7cd4 5cbd 2155 a8bd 906d 453b
000003d0: 4f76 33bc 430d 5bbd 2198 db3d e0a6 c3bc
000003e0: cfca 0a3e 83d1 1c3d 3e63 813d dfd6 eebd
000003f0: 0300 1a3e 8370 e23d f167 223d 19c2 8b3c

linear2.bias f4 [50]
0.13831237 0.07139983 0.16678691 -0.10497688 -0.009385198 0.17335299 0.024443086 -0.09913811
-0.010299618 0.079825155 0.069800824 0.038881786 -0.09460784 -0.07754094 -0.07785906 -0.049514662
0.06822503 -0.029540194 -0.01605473 -0.08242349 0.052877042 -0.033392403 -0.061683398 -0.018598942
0.08851948 0.06533878 0.078776844 -0.0079951715 0.0106884055 -0.07557881 0.029486192 0.10078916
0.012003347 0.047557674 0.08464163 0.103396125 -0.094653554 -0.007137627 -0.0075737904 0.06986409
0.015444421 -0.007794518 0.0233326 0.13785528 -0.0035839565 -0.08050803 -0.10455222 0.07936492
0.005937852 0.01819411
00000000: c2a1 0d3e 133a 923d 30ca 2a3e 1efe d6bd
00000010: 60c4 19bc 7283 313e de3c c83c ec08 cbbd
00000020: bbbf 28bc 5f7b a33d bcf3 8e3d 8242 1f3d
00000030: c1c1 c1bd c9cd 9ebd 9274 9fbd e3cf 4abd
00000040: 91b9 8b3d 47fe f1bc 3685 83bc a6cd a8bd
00000050: 9995 583d 79c6 08bd bba7 7cbd cf5c 98bc
00000060: b349 b53d 57d0 853d c155 a13d 2efe 02bc
00000070: 6c1e 2f3c 10c9 9abd 078d f13c 8c6a ce3d
00000080: b0a9 443c d6cb 423d 9758 ad3d 59c1 d33d
00000090: b9d9 c1bd c1e2 e9bb 8f2d f8bb e714 8f3d
000000a0: 990a 7d3c 2869 ffbb 0224 bf3c ef29 0d3e
000000b0: d0e0 6abb 65e1 a4bd 791f d6bd 138a a23d
000000c0: 5092 c23b d00b 953c

linear3.weight f4 [10, 50]
-0.088770956 0.124272875 -0.1791278 0.018045984 -0.15126342 -0.05327357 0.17572948 -0.046848312
0.261502 0.15151985 0.013599568 -0.020898528 0.05454679 -0.049736 -0.07560878 -0.24467768
-0.19956249 -0.091962054 0.079272546 -0.10163074 -0.0327487 0.124717124 0.18998638 -0.020931078
0.18039599 0.077648394 0.004774877 -0.23074374 0.1872787 -0.044960205 0.11526006 -0.21787195
0.040682945 -0.03314377 0.22243233 0.12380541 -0.16424748 0.07647523 0.14611201 0.14471577
0.12226193 -0.0063322033 0.14243817 -0.31476942 -0.23538634 0.038986225 0.12178755 -0.15636858
-0.0141967 0.12338044 -0.11106469 -0.026544986 -0.2444153 -0.17050439 0.08137557 -0.15268338
0.05966418 -0.136185 0.015715899 0.26124042 0.36217216 -0.1683469 -0.060078602 0.033567384
-0.031261683 0.2002875 -0.14353772 0.03885398 0.07838438 -0.053400785 0.119740896 0.17937933
0.084959365 -0.031081192 0.26009324 0.0024362048 0.0034918527 0.010171936 -0.11007758 -0.10308828
0.19080721 -0.2426201 -0.06621172 0.34701094 -0.056515805 0.07875398 0.09905588 0.015104571
-0.31045708 -0.053366136 0.18631646 -0.14744055 0.040148266 -0.05880209 0.163183 0.13129227
0.068959326 -0.13555485 0.21621335 -0.23214552 -0.09884177 0.087450445 -0.092534006 0.18820919
0.23707967 -0.020313414 0.18308164 0.17416525 0.2737476 -0.062041577 0.07633042 0.03317412
0.0514582 0.17931393 -0.08582779 0.13219744 0.065943405 -0.0046617156 -0.12703896 0.089862585
-0.006594379 -0.09902607 -0.015607972 0.07210672 -0.12368662 -0.0221278 0.007190025 -0.23967741
0.107850626 0.0012658723 -0.007434988 -0.0967964 -0.03193986 -0.17112371 -0.049424984 -0.114149
-0.16924846 -0.11253612 -0.035075534 -0.12958452 0.27511615 -0.004921144 0.19618037 0.0071232407
-0.004409452 0.0153742265 -0.095038615 -0.2376598 -0.09153104 0.062193215 0.025603263 0.087738164
-0.13315605 -0.11942772 -0.06227304 0.059770826 -0.04577229 -0.04401642 -0.1224088 0.247494
0.15771542 0.10917451 -0.08426836 0.075666435 0.04807693 -0.13406171 -0.28451127 0.0022299034
0.026050529 -0.118833266 -0.09264658 0.08523001 0.02039674 0.04343244 0.21250561 0.10114936
0.032943815 0.08445959 -0.034040798 -0.098831244 0.063069545 0.18069951 0.039312135 0.12975149
0.22561496 0.14631242 0.0068735196 -0.064692184 0.07557203 0.15827535 -0.07785741 0.09807534
-0.08459055 -0.25860122 0.0762841 0.06862636 -0.07391423 0.0010031566 0.21297209 0.15365379
-0.1077002 -0.024884755 -0.15559378 0.25221696 0.23081283 -0.075820655 0.043792203 0.17201723
0.13459021 -0.09285664 -0.09053118 -0.12512888 -0.13473928 0.0016602951 -0.10996363 -0.021062942
-0.13591398 0.02346648 -0.065880224 0.15906937 -0.12432801 0.018013671 -0.04645879 0.03593023
0.13354084 0.040100086 0.10229177 -0.0074912314 0.108579054 0.10039275 0.15583788 0.019738171
-0.12410388 -0.12454504 -0.08360157 -0.13078476 0.1931655 -0.059053686 -0.16347873 -0.20134751
0.1418384 0.13347502 0.11485852 0.033820923 -0.0643635 0.04934625 -0.011192227 0.057143707
-0.17050354 0.22580776 0.07571641 0.024289664 0.22827373 0.013748408 -0.03548369 0.26004285
00000000: 8ccd b5bd c782 fe3d 476d 37be 2cd5 933c
00000010: cce4 1abe 6335 5abd 6ef2 333e 04e4 3fbd
00000020: 97e3 853e 0528 1b3e b9d0 5e3c 6433 abbc
00000030: 746c 5f3d fab7 4bbd c7d8 9abd c98c 7abe
00000040: 1c5a 4cbe 9a56 bcbd a559 a23d c723 d0bd
00000050: 8023 06bd b16b ff3d ca8b 423e a777 abbc
00000060: bab9 383e 1f06 9f3d 9276 9c3b 1648 6cbe
00000070: fdc5 3f3e 3128 38bd 770d ec3d d319 5fbe
00000080: 29a3 263d c3c1 07bd 4dc5 633e b18d fd3d
00000090: 7e30 28be 0c9f 9c3d 639e 153e 5f30 143e
000000a0: 7664 fa3d 5f7e cfbb 50db 113e 7529 a1be
000000b0: 1e09 71be 05b0 1f3d c06b f93d 161f 20be
000000c0: 4799 68bc e2ae fc3d e275 e3bd df74 d9bc
000000d0: 0148 7abe b498 2ebe 3ca8 a63d 0859 1cbe
000000e0: 6d62 743d 1574 0bbe a1be 803c 4ec1 853e
000000f0: a16e b93e 2163 2cbe fb14 76bd f47d 093d
00000100: 400c 00bd 2b18 4d3e 8dfb 12be 5a25 1f3d
00000110: fd87 a03d c8ba 5abd b73a f53d 37af 373e
00000120: 2dff ad3d fc9d febc f12a 853e bca8 1f3b
00000130: 91d7 643b 31a8 263c 5b70 e1bd f31f d3bd
00000140: f762 433e 6771 78be 039a 87bd 6bab b13e
00000150: 1e7d 67bd c449 a13d cfdd ca3d 2a79 773c
00000160: 3bf4 9ebe 7396 5abd bec9 3e3e a8fa 16be
00000170: 8272 243d 76da 70bd 7219 273e 7b71 063e
00000180: 8c3a 8d3d e4ce 0abe 0867 5d3e 8eb7 6dbe
00000190: 8e6d cabd 3819 b33d 7882 bdbd e9b9 403e
000001a0: 03c5 723e 5168 a6bc c179 3b3e 6058 323e
000001b0: a528 8c3e 4f1f 7ebd 2053 9c3d 96e1 073d
000001c0: d5c5 523d 129e 373e 7bc6 afbd c45e 073e
000001d0: 560d 873d 4ec1 98bb 8016 02be e009 b83d
000001e0: a915 d8bb 2ece cabd 94b8 7fbc b0ac 933d
000001f0: 694f fdbd 5c45 b5bc 4d9a eb3b ff6d 75be
00000200: cae0 dc3d a0eb a53a 33a1 f3bb 313d c6bd
00000210: 5fd3 02bd 0e3b 2fbe da71 4abd f3c6 e9bd
00000220: 784f 2dbe 5679 e6bd 5dab 0fbd ceb1 04be
00000230: 06dc 8c3e 8c41 a1bb 82e3 483e 136a e93b
00000240: 2a7d 90bb 2ee4 7b3c 9ba3 c2bd 175d 73be
00000250: a074 bbbd 50be 7e3d efbd d13c 11b0 b33d
00000260: 0f5a 08be 8596 f4bd 0412 7fbd 41d2 743d
00000270: ba7b 3bbd 904a 34bd 77b1 fabd 116f 7d3e
00000280: 2780 213e e396 df3d e494 acbd 01f7 9a3d
00000290: 51ec 443d 7947 09be 76ab 91be 9223 123b
000002a0: eb67 d53c db5e f3bd 7dbd bdbd 128d ae3d
000002b0: 1017 a73c 37e6 313d 129b 593e 6527 cf3d
000002c0: 18f0 063d 26f9 ac3d 5d6e 0bbd 0968 cabd
000002d0: 9b2a 813d 4b09 393e c305 213d 93dd 043e
000002e0: 9c07 673e ecd2 153e 433b e13b 567d 84bd
000002f0: 82c5 9a3d ef12 223e b573 9fbd b9db c83d
00000300: cf3d adbd 6167 84be d73a 9c3d fa8b 8c3d
00000310: 5860 97bd 5a7c 833a 5b15 5a3e 6b57 1d3e
00000320: ec91 dcbd 1ddb cbbc fa53 1fbe 9522 813e
00000330: 335a 6c3e dc47 9bbd 745f 333d 4925 303e
00000340: 04d2 093e 9f2b bebd 6968 b9bd c921 00be
00000350: 18f9 09be 429e d93a 9d34 e1bd 318c acbc
00000360: 092d 0bbe c73c c03c 36ec 86bd 15e3 223e
00000370: af9f febd 6891 933c 924b 3ebd 942b 133d
00000380: eebe 083e fd3f 243d 597e d13d 0179 f5bb
00000390: b25e de3d b79a cd3d f793 1f3e f2b1 a13c
000003a0: 2d2a febd 7811 ffbd 4d37 abbd 71ec 05be
000003b0: 2dcd 453e 47e2 71bd f866 27be 0b2e 4ebe
000003c0: 163e 113e adad 083e f23a eb3d cf87 0a3d
000003d0: 03d1 83bd 4b1f 4a3d 9a5f 37bc 850f 6a3d
000003e0: 7b98 2ebe 263a 673e 3511 9b3d 1efb c63c
000003f0: 97c0 693e 0141 613c 5957 11bd 5624 853e

linear3.bias f4 [10]
0.042357985 0.07166074 -0.14559765 0.04554054 -0.17975876 0.21720603 -0.0717161 0.17568791
-0.06805667 -0.13602993
00000000: 917f 2d3d dec2 923d 8d17 15be b888 3a3d
00000010: ae12 38be 426b 5e3e e4df 92bd 88e7 333e
00000020: 4c61 8bbd 6e4b 0bbe
